----------------------------------------------------------------
        Layer (type)               Output Shape         Param #
================================================================
            Conv2d-1         [-1, 1536, 16, 16]         904,704
          Identity-2            [-1, 256, 1536]               0
        PatchEmbed-3            [-1, 256, 1536]               0
         LayerNorm-4            [-1, 261, 1536]           3,072
            Linear-5            [-1, 261, 4608]       7,082,496
            Linear-6            [-1, 261, 1536]       2,360,832
           Dropout-7            [-1, 261, 1536]               0
   MemEffAttention-8            [-1, 261, 1536]               0
        LayerScale-9            [-1, 261, 1536]               0
        LayerNorm-10            [-1, 261, 1536]           3,072
   SwiGLUFFNFused-11            [-1, 261, 1536]               0
       LayerScale-12            [-1, 261, 1536]               0
NestedTensorBlock-13            [-1, 261, 1536]               0
        LayerNorm-14            [-1, 261, 1536]           3,072
           Linear-15            [-1, 261, 4608]       7,082,496
           Linear-16            [-1, 261, 1536]       2,360,832
          Dropout-17            [-1, 261, 1536]               0
  MemEffAttention-18            [-1, 261, 1536]               0
       LayerScale-19            [-1, 261, 1536]               0
        LayerNorm-20            [-1, 261, 1536]           3,072
   SwiGLUFFNFused-21            [-1, 261, 1536]               0
       LayerScale-22            [-1, 261, 1536]               0
NestedTensorBlock-23            [-1, 261, 1536]               0
        LayerNorm-24            [-1, 261, 1536]           3,072
           Linear-25            [-1, 261, 4608]       7,082,496
           Linear-26            [-1, 261, 1536]       2,360,832
          Dropout-27            [-1, 261, 1536]               0
  MemEffAttention-28            [-1, 261, 1536]               0
       LayerScale-29            [-1, 261, 1536]               0
        LayerNorm-30            [-1, 261, 1536]           3,072
   SwiGLUFFNFused-31            [-1, 261, 1536]               0
       LayerScale-32            [-1, 261, 1536]               0
NestedTensorBlock-33            [-1, 261, 1536]               0
        LayerNorm-34            [-1, 261, 1536]           3,072
           Linear-35            [-1, 261, 4608]       7,082,496
           Linear-36            [-1, 261, 1536]       2,360,832
          Dropout-37            [-1, 261, 1536]               0
  MemEffAttention-38            [-1, 261, 1536]               0
       LayerScale-39            [-1, 261, 1536]               0
        LayerNorm-40            [-1, 261, 1536]           3,072
   SwiGLUFFNFused-41            [-1, 261, 1536]               0
       LayerScale-42            [-1, 261, 1536]               0
NestedTensorBlock-43            [-1, 261, 1536]               0
        LayerNorm-44            [-1, 261, 1536]           3,072
           Linear-45            [-1, 261, 4608]       7,082,496
           Linear-46            [-1, 261, 1536]       2,360,832
          Dropout-47            [-1, 261, 1536]               0
  MemEffAttention-48            [-1, 261, 1536]               0
       LayerScale-49            [-1, 261, 1536]               0
        LayerNorm-50            [-1, 261, 1536]           3,072
   SwiGLUFFNFused-51            [-1, 261, 1536]               0
       LayerScale-52            [-1, 261, 1536]               0
NestedTensorBlock-53            [-1, 261, 1536]               0
        LayerNorm-54            [-1, 261, 1536]           3,072
           Linear-55            [-1, 261, 4608]       7,082,496
           Linear-56            [-1, 261, 1536]       2,360,832
          Dropout-57            [-1, 261, 1536]               0
  MemEffAttention-58            [-1, 261, 1536]               0
       LayerScale-59            [-1, 261, 1536]               0
        LayerNorm-60            [-1, 261, 1536]           3,072
   SwiGLUFFNFused-61            [-1, 261, 1536]               0
       LayerScale-62            [-1, 261, 1536]               0
NestedTensorBlock-63            [-1, 261, 1536]               0
        LayerNorm-64            [-1, 261, 1536]           3,072
           Linear-65            [-1, 261, 4608]       7,082,496
           Linear-66            [-1, 261, 1536]       2,360,832
          Dropout-67            [-1, 261, 1536]               0
  MemEffAttention-68            [-1, 261, 1536]               0
       LayerScale-69            [-1, 261, 1536]               0
        LayerNorm-70            [-1, 261, 1536]           3,072
   SwiGLUFFNFused-71            [-1, 261, 1536]               0
       LayerScale-72            [-1, 261, 1536]               0
NestedTensorBlock-73            [-1, 261, 1536]               0
        LayerNorm-74            [-1, 261, 1536]           3,072
           Linear-75            [-1, 261, 4608]       7,082,496
           Linear-76            [-1, 261, 1536]       2,360,832
          Dropout-77            [-1, 261, 1536]               0
  MemEffAttention-78            [-1, 261, 1536]               0
       LayerScale-79            [-1, 261, 1536]               0
        LayerNorm-80            [-1, 261, 1536]           3,072
   SwiGLUFFNFused-81            [-1, 261, 1536]               0
       LayerScale-82            [-1, 261, 1536]               0
NestedTensorBlock-83            [-1, 261, 1536]               0
        LayerNorm-84            [-1, 261, 1536]           3,072
           Linear-85            [-1, 261, 4608]       7,082,496
           Linear-86            [-1, 261, 1536]       2,360,832
          Dropout-87            [-1, 261, 1536]               0
  MemEffAttention-88            [-1, 261, 1536]               0
       LayerScale-89            [-1, 261, 1536]               0
        LayerNorm-90            [-1, 261, 1536]           3,072
   SwiGLUFFNFused-91            [-1, 261, 1536]               0
       LayerScale-92            [-1, 261, 1536]               0
NestedTensorBlock-93            [-1, 261, 1536]               0
        LayerNorm-94            [-1, 261, 1536]           3,072
           Linear-95            [-1, 261, 4608]       7,082,496
           Linear-96            [-1, 261, 1536]       2,360,832
          Dropout-97            [-1, 261, 1536]               0
  MemEffAttention-98            [-1, 261, 1536]               0
       LayerScale-99            [-1, 261, 1536]               0
       LayerNorm-100            [-1, 261, 1536]           3,072
  SwiGLUFFNFused-101            [-1, 261, 1536]               0
      LayerScale-102            [-1, 261, 1536]               0
NestedTensorBlock-103            [-1, 261, 1536]               0
       LayerNorm-104            [-1, 261, 1536]           3,072
          Linear-105            [-1, 261, 4608]       7,082,496
          Linear-106            [-1, 261, 1536]       2,360,832
         Dropout-107            [-1, 261, 1536]               0
 MemEffAttention-108            [-1, 261, 1536]               0
      LayerScale-109            [-1, 261, 1536]               0
       LayerNorm-110            [-1, 261, 1536]           3,072
  SwiGLUFFNFused-111            [-1, 261, 1536]               0
      LayerScale-112            [-1, 261, 1536]               0
NestedTensorBlock-113            [-1, 261, 1536]               0
       LayerNorm-114            [-1, 261, 1536]           3,072
          Linear-115            [-1, 261, 4608]       7,082,496
          Linear-116            [-1, 261, 1536]       2,360,832
         Dropout-117            [-1, 261, 1536]               0
 MemEffAttention-118            [-1, 261, 1536]               0
      LayerScale-119            [-1, 261, 1536]               0
       LayerNorm-120            [-1, 261, 1536]           3,072
  SwiGLUFFNFused-121            [-1, 261, 1536]               0
      LayerScale-122            [-1, 261, 1536]               0
NestedTensorBlock-123            [-1, 261, 1536]               0
       LayerNorm-124            [-1, 261, 1536]           3,072
          Linear-125            [-1, 261, 4608]       7,082,496
          Linear-126            [-1, 261, 1536]       2,360,832
         Dropout-127            [-1, 261, 1536]               0
 MemEffAttention-128            [-1, 261, 1536]               0
      LayerScale-129            [-1, 261, 1536]               0
       LayerNorm-130            [-1, 261, 1536]           3,072
  SwiGLUFFNFused-131            [-1, 261, 1536]               0
      LayerScale-132            [-1, 261, 1536]               0
NestedTensorBlock-133            [-1, 261, 1536]               0
       LayerNorm-134            [-1, 261, 1536]           3,072
          Linear-135            [-1, 261, 4608]       7,082,496
          Linear-136            [-1, 261, 1536]       2,360,832
         Dropout-137            [-1, 261, 1536]               0
 MemEffAttention-138            [-1, 261, 1536]               0
      LayerScale-139            [-1, 261, 1536]               0
       LayerNorm-140            [-1, 261, 1536]           3,072
  SwiGLUFFNFused-141            [-1, 261, 1536]               0
      LayerScale-142            [-1, 261, 1536]               0
NestedTensorBlock-143            [-1, 261, 1536]               0
       LayerNorm-144            [-1, 261, 1536]           3,072
          Linear-145            [-1, 261, 4608]       7,082,496
          Linear-146            [-1, 261, 1536]       2,360,832
         Dropout-147            [-1, 261, 1536]               0
 MemEffAttention-148            [-1, 261, 1536]               0
      LayerScale-149            [-1, 261, 1536]               0
       LayerNorm-150            [-1, 261, 1536]           3,072
  SwiGLUFFNFused-151            [-1, 261, 1536]               0
      LayerScale-152            [-1, 261, 1536]               0
NestedTensorBlock-153            [-1, 261, 1536]               0
       LayerNorm-154            [-1, 261, 1536]           3,072
          Linear-155            [-1, 261, 4608]       7,082,496
          Linear-156            [-1, 261, 1536]       2,360,832
         Dropout-157            [-1, 261, 1536]               0
 MemEffAttention-158            [-1, 261, 1536]               0
      LayerScale-159            [-1, 261, 1536]               0
       LayerNorm-160            [-1, 261, 1536]           3,072
  SwiGLUFFNFused-161            [-1, 261, 1536]               0
      LayerScale-162            [-1, 261, 1536]               0
NestedTensorBlock-163            [-1, 261, 1536]               0
       LayerNorm-164            [-1, 261, 1536]           3,072
          Linear-165            [-1, 261, 4608]       7,082,496
          Linear-166            [-1, 261, 1536]       2,360,832
         Dropout-167            [-1, 261, 1536]               0
 MemEffAttention-168            [-1, 261, 1536]               0
      LayerScale-169            [-1, 261, 1536]               0
       LayerNorm-170            [-1, 261, 1536]           3,072
  SwiGLUFFNFused-171            [-1, 261, 1536]               0
      LayerScale-172            [-1, 261, 1536]               0
NestedTensorBlock-173            [-1, 261, 1536]               0
       LayerNorm-174            [-1, 261, 1536]           3,072
          Linear-175            [-1, 261, 4608]       7,082,496
          Linear-176            [-1, 261, 1536]       2,360,832
         Dropout-177            [-1, 261, 1536]               0
 MemEffAttention-178            [-1, 261, 1536]               0
      LayerScale-179            [-1, 261, 1536]               0
       LayerNorm-180            [-1, 261, 1536]           3,072
  SwiGLUFFNFused-181            [-1, 261, 1536]               0
      LayerScale-182            [-1, 261, 1536]               0
NestedTensorBlock-183            [-1, 261, 1536]               0
       LayerNorm-184            [-1, 261, 1536]           3,072
          Linear-185            [-1, 261, 4608]       7,082,496
          Linear-186            [-1, 261, 1536]       2,360,832
         Dropout-187            [-1, 261, 1536]               0
 MemEffAttention-188            [-1, 261, 1536]               0
      LayerScale-189            [-1, 261, 1536]               0
       LayerNorm-190            [-1, 261, 1536]           3,072
  SwiGLUFFNFused-191            [-1, 261, 1536]               0
      LayerScale-192            [-1, 261, 1536]               0
NestedTensorBlock-193            [-1, 261, 1536]               0
       LayerNorm-194            [-1, 261, 1536]           3,072
          Linear-195            [-1, 261, 4608]       7,082,496
          Linear-196            [-1, 261, 1536]       2,360,832
         Dropout-197            [-1, 261, 1536]               0
 MemEffAttention-198            [-1, 261, 1536]               0
      LayerScale-199            [-1, 261, 1536]               0
       LayerNorm-200            [-1, 261, 1536]           3,072
  SwiGLUFFNFused-201            [-1, 261, 1536]               0
      LayerScale-202            [-1, 261, 1536]               0
NestedTensorBlock-203            [-1, 261, 1536]               0
       LayerNorm-204            [-1, 261, 1536]           3,072
          Linear-205            [-1, 261, 4608]       7,082,496
          Linear-206            [-1, 261, 1536]       2,360,832
         Dropout-207            [-1, 261, 1536]               0
 MemEffAttention-208            [-1, 261, 1536]               0
      LayerScale-209            [-1, 261, 1536]               0
       LayerNorm-210            [-1, 261, 1536]           3,072
  SwiGLUFFNFused-211            [-1, 261, 1536]               0
      LayerScale-212            [-1, 261, 1536]               0
NestedTensorBlock-213            [-1, 261, 1536]               0
       LayerNorm-214            [-1, 261, 1536]           3,072
          Linear-215            [-1, 261, 4608]       7,082,496
          Linear-216            [-1, 261, 1536]       2,360,832
         Dropout-217            [-1, 261, 1536]               0
 MemEffAttention-218            [-1, 261, 1536]               0
      LayerScale-219            [-1, 261, 1536]               0
       LayerNorm-220            [-1, 261, 1536]           3,072
  SwiGLUFFNFused-221            [-1, 261, 1536]               0
      LayerScale-222            [-1, 261, 1536]               0
NestedTensorBlock-223            [-1, 261, 1536]               0
       LayerNorm-224            [-1, 261, 1536]           3,072
          Linear-225            [-1, 261, 4608]       7,082,496
          Linear-226            [-1, 261, 1536]       2,360,832
         Dropout-227            [-1, 261, 1536]               0
 MemEffAttention-228            [-1, 261, 1536]               0
      LayerScale-229            [-1, 261, 1536]               0
       LayerNorm-230            [-1, 261, 1536]           3,072
  SwiGLUFFNFused-231            [-1, 261, 1536]               0
      LayerScale-232            [-1, 261, 1536]               0
NestedTensorBlock-233            [-1, 261, 1536]               0
       LayerNorm-234            [-1, 261, 1536]           3,072
          Linear-235            [-1, 261, 4608]       7,082,496
          Linear-236            [-1, 261, 1536]       2,360,832
         Dropout-237            [-1, 261, 1536]               0
 MemEffAttention-238            [-1, 261, 1536]               0
      LayerScale-239            [-1, 261, 1536]               0
       LayerNorm-240            [-1, 261, 1536]           3,072
  SwiGLUFFNFused-241            [-1, 261, 1536]               0
      LayerScale-242            [-1, 261, 1536]               0
NestedTensorBlock-243            [-1, 261, 1536]               0
       LayerNorm-244            [-1, 261, 1536]           3,072
          Linear-245            [-1, 261, 4608]       7,082,496
          Linear-246            [-1, 261, 1536]       2,360,832
         Dropout-247            [-1, 261, 1536]               0
 MemEffAttention-248            [-1, 261, 1536]               0
      LayerScale-249            [-1, 261, 1536]               0
       LayerNorm-250            [-1, 261, 1536]           3,072
  SwiGLUFFNFused-251            [-1, 261, 1536]               0
      LayerScale-252            [-1, 261, 1536]               0
NestedTensorBlock-253            [-1, 261, 1536]               0
       LayerNorm-254            [-1, 261, 1536]           3,072
          Linear-255            [-1, 261, 4608]       7,082,496
          Linear-256            [-1, 261, 1536]       2,360,832
         Dropout-257            [-1, 261, 1536]               0
 MemEffAttention-258            [-1, 261, 1536]               0
      LayerScale-259            [-1, 261, 1536]               0
       LayerNorm-260            [-1, 261, 1536]           3,072
  SwiGLUFFNFused-261            [-1, 261, 1536]               0
      LayerScale-262            [-1, 261, 1536]               0
NestedTensorBlock-263            [-1, 261, 1536]               0
       LayerNorm-264            [-1, 261, 1536]           3,072
          Linear-265            [-1, 261, 4608]       7,082,496
          Linear-266            [-1, 261, 1536]       2,360,832
         Dropout-267            [-1, 261, 1536]               0
 MemEffAttention-268            [-1, 261, 1536]               0
      LayerScale-269            [-1, 261, 1536]               0
       LayerNorm-270            [-1, 261, 1536]           3,072
  SwiGLUFFNFused-271            [-1, 261, 1536]               0
      LayerScale-272            [-1, 261, 1536]               0
NestedTensorBlock-273            [-1, 261, 1536]               0
       LayerNorm-274            [-1, 261, 1536]           3,072
          Linear-275            [-1, 261, 4608]       7,082,496
          Linear-276            [-1, 261, 1536]       2,360,832
         Dropout-277            [-1, 261, 1536]               0
 MemEffAttention-278            [-1, 261, 1536]               0
      LayerScale-279            [-1, 261, 1536]               0
       LayerNorm-280            [-1, 261, 1536]           3,072
  SwiGLUFFNFused-281            [-1, 261, 1536]               0
      LayerScale-282            [-1, 261, 1536]               0
NestedTensorBlock-283            [-1, 261, 1536]               0
       LayerNorm-284            [-1, 261, 1536]           3,072
          Linear-285            [-1, 261, 4608]       7,082,496
          Linear-286            [-1, 261, 1536]       2,360,832
         Dropout-287            [-1, 261, 1536]               0
 MemEffAttention-288            [-1, 261, 1536]               0
      LayerScale-289            [-1, 261, 1536]               0
       LayerNorm-290            [-1, 261, 1536]           3,072
  SwiGLUFFNFused-291            [-1, 261, 1536]               0
      LayerScale-292            [-1, 261, 1536]               0
NestedTensorBlock-293            [-1, 261, 1536]               0
       LayerNorm-294            [-1, 261, 1536]           3,072
          Linear-295            [-1, 261, 4608]       7,082,496
          Linear-296            [-1, 261, 1536]       2,360,832
         Dropout-297            [-1, 261, 1536]               0
 MemEffAttention-298            [-1, 261, 1536]               0
      LayerScale-299            [-1, 261, 1536]               0
       LayerNorm-300            [-1, 261, 1536]           3,072
  SwiGLUFFNFused-301            [-1, 261, 1536]               0
      LayerScale-302            [-1, 261, 1536]               0
NestedTensorBlock-303            [-1, 261, 1536]               0
       LayerNorm-304            [-1, 261, 1536]           3,072
          Linear-305            [-1, 261, 4608]       7,082,496
          Linear-306            [-1, 261, 1536]       2,360,832
         Dropout-307            [-1, 261, 1536]               0
 MemEffAttention-308            [-1, 261, 1536]               0
      LayerScale-309            [-1, 261, 1536]               0
       LayerNorm-310            [-1, 261, 1536]           3,072
  SwiGLUFFNFused-311            [-1, 261, 1536]               0
      LayerScale-312            [-1, 261, 1536]               0
NestedTensorBlock-313            [-1, 261, 1536]               0
       LayerNorm-314            [-1, 261, 1536]           3,072
          Linear-315            [-1, 261, 4608]       7,082,496
          Linear-316            [-1, 261, 1536]       2,360,832
         Dropout-317            [-1, 261, 1536]               0
 MemEffAttention-318            [-1, 261, 1536]               0
      LayerScale-319            [-1, 261, 1536]               0
       LayerNorm-320            [-1, 261, 1536]           3,072
  SwiGLUFFNFused-321            [-1, 261, 1536]               0
      LayerScale-322            [-1, 261, 1536]               0
NestedTensorBlock-323            [-1, 261, 1536]               0
       LayerNorm-324            [-1, 261, 1536]           3,072
          Linear-325            [-1, 261, 4608]       7,082,496
          Linear-326            [-1, 261, 1536]       2,360,832
         Dropout-327            [-1, 261, 1536]               0
 MemEffAttention-328            [-1, 261, 1536]               0
      LayerScale-329            [-1, 261, 1536]               0
       LayerNorm-330            [-1, 261, 1536]           3,072
  SwiGLUFFNFused-331            [-1, 261, 1536]               0
      LayerScale-332            [-1, 261, 1536]               0
NestedTensorBlock-333            [-1, 261, 1536]               0
       LayerNorm-334            [-1, 261, 1536]           3,072
          Linear-335            [-1, 261, 4608]       7,082,496
          Linear-336            [-1, 261, 1536]       2,360,832
         Dropout-337            [-1, 261, 1536]               0
 MemEffAttention-338            [-1, 261, 1536]               0
      LayerScale-339            [-1, 261, 1536]               0
       LayerNorm-340            [-1, 261, 1536]           3,072
  SwiGLUFFNFused-341            [-1, 261, 1536]               0
      LayerScale-342            [-1, 261, 1536]               0
NestedTensorBlock-343            [-1, 261, 1536]               0
       LayerNorm-344            [-1, 261, 1536]           3,072
          Linear-345            [-1, 261, 4608]       7,082,496
          Linear-346            [-1, 261, 1536]       2,360,832
         Dropout-347            [-1, 261, 1536]               0
 MemEffAttention-348            [-1, 261, 1536]               0
      LayerScale-349            [-1, 261, 1536]               0
       LayerNorm-350            [-1, 261, 1536]           3,072
  SwiGLUFFNFused-351            [-1, 261, 1536]               0
      LayerScale-352            [-1, 261, 1536]               0
NestedTensorBlock-353            [-1, 261, 1536]               0
       LayerNorm-354            [-1, 261, 1536]           3,072
          Linear-355            [-1, 261, 4608]       7,082,496
          Linear-356            [-1, 261, 1536]       2,360,832
         Dropout-357            [-1, 261, 1536]               0
 MemEffAttention-358            [-1, 261, 1536]               0
      LayerScale-359            [-1, 261, 1536]               0
       LayerNorm-360            [-1, 261, 1536]           3,072
  SwiGLUFFNFused-361            [-1, 261, 1536]               0
      LayerScale-362            [-1, 261, 1536]               0
NestedTensorBlock-363            [-1, 261, 1536]               0
       LayerNorm-364            [-1, 261, 1536]           3,072
          Linear-365            [-1, 261, 4608]       7,082,496
          Linear-366            [-1, 261, 1536]       2,360,832
         Dropout-367            [-1, 261, 1536]               0
 MemEffAttention-368            [-1, 261, 1536]               0
      LayerScale-369            [-1, 261, 1536]               0
       LayerNorm-370            [-1, 261, 1536]           3,072
  SwiGLUFFNFused-371            [-1, 261, 1536]               0
      LayerScale-372            [-1, 261, 1536]               0
NestedTensorBlock-373            [-1, 261, 1536]               0
       LayerNorm-374            [-1, 261, 1536]           3,072
          Linear-375            [-1, 261, 4608]       7,082,496
          Linear-376            [-1, 261, 1536]       2,360,832
         Dropout-377            [-1, 261, 1536]               0
 MemEffAttention-378            [-1, 261, 1536]               0
      LayerScale-379            [-1, 261, 1536]               0
       LayerNorm-380            [-1, 261, 1536]           3,072
  SwiGLUFFNFused-381            [-1, 261, 1536]               0
      LayerScale-382            [-1, 261, 1536]               0
NestedTensorBlock-383            [-1, 261, 1536]               0
       LayerNorm-384            [-1, 261, 1536]           3,072
          Linear-385            [-1, 261, 4608]       7,082,496
          Linear-386            [-1, 261, 1536]       2,360,832
         Dropout-387            [-1, 261, 1536]               0
 MemEffAttention-388            [-1, 261, 1536]               0
      LayerScale-389            [-1, 261, 1536]               0
       LayerNorm-390            [-1, 261, 1536]           3,072
  SwiGLUFFNFused-391            [-1, 261, 1536]               0
      LayerScale-392            [-1, 261, 1536]               0
NestedTensorBlock-393            [-1, 261, 1536]               0
       LayerNorm-394            [-1, 261, 1536]           3,072
          Linear-395            [-1, 261, 4608]       7,082,496
          Linear-396            [-1, 261, 1536]       2,360,832
         Dropout-397            [-1, 261, 1536]               0
 MemEffAttention-398            [-1, 261, 1536]               0
      LayerScale-399            [-1, 261, 1536]               0
       LayerNorm-400            [-1, 261, 1536]           3,072
  SwiGLUFFNFused-401            [-1, 261, 1536]               0
      LayerScale-402            [-1, 261, 1536]               0
NestedTensorBlock-403            [-1, 261, 1536]               0
       LayerNorm-404            [-1, 261, 1536]           3,072
        Identity-405                 [-1, 1536]               0
================================================================
Total params: 378,886,656
Trainable params: 378,886,656
Non-trainable params: 0
----------------------------------------------------------------
Input size (MB): 0.57
Forward/backward pass size (MB): 1480.20
Params size (MB): 1445.34
Estimated Total Size (MB): 2926.11
----------------------------------------------------------------

